checkpoint_actor.pth (torch_old, 39691 bytes, 4 tensors)

fc1.weight f4 [256, 33]
000000 7f 4f ee 3d 8b 2a 08 3f af 17 a0 ba 1b 3b cf be
       0.116362564 0.53189915 -0.001221409 -0.4047478
000010 de 2a bd be 6c bb d3 3e 5b d2 b8 3d 02 29 8b be
       -0.36946768 0.4135393 0.09024497 -0.27179724
000020 e7 25 e5 be 1f 89 26 3d 3b 2f 0c be d5 eb f2 3e
       -0.4475548 0.040658113 -0.13689892 0.4744555
000030 3d 4c 93 3d 6a 46 2e bf 04 59 39 3e 5f c4 1a 3f
       0.07192276 -0.68076193 0.18100363 0.6045589
000040 8d 4d 5b be 51 8b 38 3d bf 87 12 be ea d0 c5 3b
       -0.21416302 0.045054737 -0.14309596 0.0060368674
000050 44 d1 11 3e a5 31 6a be ba a5 77 3e 78 21 b2 bd
       0.14239985 -0.228705 0.24184313 -0.0869779
000060 95 58 34 be c8 70 d1 3d 5e 77 9f 3d e0 cb 00 3f
       -0.17611916 0.102265894 0.07786439 0.5031109
000070 2b 33 51 3e d4 03 70 bd b4 28 db be 40 60 c3 bb
       0.20429675 -0.0585974 -0.42804492 -0.0059624016
000080 40 d8 e4 3f 8e d8 30 be 27 b9 46 3d cc 02 46 3e
       1.7878494 -0.17270109 0.04851642 0.19337004
000090 62 41 1c be 8d 41 bf be fb 24 a0 3e 24 97 c8 be
       -0.15259317 -0.373547 0.31278214 -0.3917781
0000a0 c7 30 a8 be 2d bd 8d be 27 71 7d be d4 12 e7 bd
       -0.32849714 -0.27683392 -0.24750195 -0.11282888
0000b0 2f 46 16 3f b8 78 c2 3e 10 1f c3 3e d4 50 03 3f
       0.5870084 0.37982726 0.38109636 0.5129521
0000c0 24 ab f0 be f6 09 a6 be 87 4f 30 bf e2 f1 05 3e
       -0.4700557 -0.32429475 -0.6887135 0.13080552
0000d0 e6 24 ea 3b cc ed b8 be 5c 92 78 bd b8 0e 29 be
       0.007145512 -0.36118925 -0.060686454 -0.16509521
0000e0 c9 06 93 3e 2b 0a 99 3d cc f9 6a be a8 98 8b be
       0.28716114 0.074726425 -0.22946852 -0.27264905
0000f0 cd 2a 10 3f 55 63 ee 3e 34 22 44 bd 5c 46 0c bf
       0.5631531 0.4656016 -0.04788418 -0.5479486
000100 98 d5 d4 3c 59 12 83 be 38 0e 30 bd ff f8 2f 3f
       0.025980756 -0.25599936 -0.04298231 0.6873931
000110 4b 32 92 be 88 80 b5 be 7a 41 d0 be 36 b4 ba 3f
       -0.28553995 -0.35449624 -0.40674955 1.4586246
000120 d7 66 3c bf d9 62 8b 3e 78 5d f0 be 76 a4 bf bd
       -0.7359442 0.27223852 -0.4694631 -0.0935754
000130 84 0c f8 3d 31 58 37 3c 0b 28 99 be 6c 97 7f 3e
       0.12111762 0.01119046 -0.29913363 0.24960107
000140 6a 68 43 3f 07 0e ed bd f5 fe 7e 3f da 84 fc ba
       0.763312 -0.11574941 0.99607784 -0.0019265667
000150 95 f3 ea 3e 9a ac 69 3e a3 7b b3 3e 37 db ca 3d
       0.45888963 0.22819749 0.35055265 0.09905093
000160 40 19 a2 3e 63 02 09 3f ba 88 0f 3f 3f 12 21 bf
       0.3165989 0.53519267 0.56068003 -0.62918466
000170 de c0 e1 3d a0 80 15 3f da 75 29 be 76 c4 34 3d
       0.110231146 0.5839939 -0.16548863 0.044132672
000180 a6 d3 1c bf e0 50 26 bd 77 99 fb 3e 13 81 e5 3e
       -0.6126045 -0.040604472 0.49140522 0.44825038
000190 b3 3d 0d 3a f4 1b 06 3d b5 cb 67 be 83 cc de 3e
       0.0005387917 0.032741502 -0.22636302 0.43515405
0001a0 7a 4f b0 3e 8d 62 e8 3d c2 49 96 3e b2 4d 54 3d
       0.34435636 0.11346922 0.29353148 0.05183191
0001b0 d5 55 25 3d 2a cc 93 bd 62 e8 d9 bd be 99 99 be
       0.04036506 -0.072166756 -0.10640027 -0.30000108
0001c0 18 d7 54 bf 73 28 2e 3e 9b d2 ef bc 6a c0 ae be
       -0.83140707 0.17007618 -0.02927523 -0.34131175
0001d0 da de 4f 3d be 05 64 3d b9 be 56 3e 20 3c 24 be
       0.050749637 0.05566954 0.20971192 -0.16038561
0001e0 04 2e a9 3e f8 7e 2d 3e 0a ba 8f be f9 38 1e be
       0.3304292 0.16942966 -0.28071624 -0.15451421
0001f0 c6 1c dc 3d 0c 87 2c 3f 23 47 03 3f bf 5a ca be
       0.107476756 0.67393565 0.5128042 -0.3952236
000200 ac a2 c0 bc 73 e1 fd be aa f8 09 bd 85 fb d0 bf
       -0.023515068 -0.49586067 -0.03368441 -1.6326758
000210 64 1a 81 be 07 90 02 3e d5 b0 91 bd 26 ca b4 be
       -0.25215447 0.12750255 -0.07113806 -0.35310477
000220 95 97 86 be c9 80 3d be e8 99 ab bd ad e5 7b 3d
       -0.26287523 -0.18506159 -0.08378965 0.061498333
000230 62 d5 87 bb 31 a8 67 bc 8d dd 33 3d cd c1 53 3d
       -0.0041453103 -0.014139221 0.04391246 0.051698495
000240 b6 fe bb bd 46 98 ae 3a 5e ff 1d 3f 3f 42 86 be
       -0.09179442 0.0013320528 0.61717784 -0.26222417
000250 13 af 83 3e c9 77 d4 3d c6 d7 8f 3e ae d5 14 be
       0.2571951 0.1037441 0.2809431 -0.14534637
000260 ca 2c 32 bc ff 23 1f bf 1d 5a 0e bd 46 d8 99 3e
       -0.010874936 -0.621643 -0.034753907 0.30047816
000270 37 02 fe 3d 87 67 14 bf 00 0b b5 be 97 33 2f 3f
       0.12402766 -0.5797047 -0.35359955 0.68438095
000280 12 c3 d4 bd f4 0f a7 3c 72 ff 39 bf 64 33 b9 3c
       -0.10388769 0.02039335 -0.72655404 0.022607513
000290 b2 ef bd bf 44 9e ab 3e cf 6e 0f 3e a7 b3 80 3e
       -1.4838774 0.33519185 0.14007114 0.25137064
0002a0 6a 03 d2 be eb 62 07 be 90 50 db be 36 e3 22 3e
       -0.4101823 -0.13221328 -0.42834902 0.15906987
0002b0 7e 63 db 3d a9 a8 39 bf 4a e7 33 3e e1 45 16 bb
       0.10712336 -0.7252298 0.17568699 -0.0022929835
0002c0 cc de e6 be f6 af c6 3e 6e ff a0 bd 56 4b 7b 3e
       -0.45091856 0.38806123 -0.07861219 0.24540457
0002d0 1b 42 97 bd aa f5 56 be 4f 9f 3a 3e ee 5c 1b 3e
       -0.073856555 -0.20992151 0.18224834 0.15172169
0002e0 fa aa 0f 3e ac 56 9f bb a2 c4 8e bf e9 67 07 bf
       0.14030066 -0.004862627 -1.1153758 -0.5289293
0002f0 7f 78 2c be 04 b5 a6 bd e5 01 95 bd 59 20 6e be
       -0.1684284 -0.08139995 -0.07275752 -0.23254527
000300 1a ff d1 3e 8f e9 87 be ee e2 23 3d 7e 7f f1 be
       0.4101494 -0.2654538 0.04001134 -0.4716758
000310 08 82 f6 3c ba f1 06 c0 df fd 99 3d 0e ee 21 3e
       0.0300913 -2.1085038 0.07519125 0.15813467
000320 13 ff 10 bc fc f6 98 be 6f 99 e2 3d 22 17 f2 bc
       -0.008849877 -0.29875934 0.110644214 -0.029552046
000330 b5 d3 a7 3e 08 1d 4d bd 19 59 5e 3e 74 8e 85 3e
       0.32778707 -0.050076514 0.21713676 0.26085246
000340 41 5d 50 3e 7d b8 49 3e 3d 1f 7f be 71 76 8e be
       0.20348074 0.19699283 -0.2491426 -0.2782474
000350 08 ce 92 3f 54 af b8 bd 5c 16 87 be ee f0 3e be
       1.1469126 -0.09017816 -0.26384246 -0.18646595
000360 eb 92 84 be 7a 42 78 3e db 50 d0 be 60 3b 1c be
       -0.2589334 0.24244109 -0.40686688 -0.15257025
000370 1b c1 82 be ec 1c f3 3d 11 73 e1 3e f6 e3 27 be
       -0.25537953 0.11870751 0.440331 -0.16395554
000380 de 1a cf 3e e6 b4 38 3f c4 62 af 3e 3c e9 b1 bc
       0.40450186 0.7215103 0.3425504 -0.02171766
000390 ba 6f 37 bf 90 65 2e bd e8 52 f2 3e b3 c5 0c 3d
       -0.71654856 -0.042577326 0.47328877 0.03436823
0003a0 d3 0d 49 3e 0a 89 83 3f 55 ee 5f be ab ac 9e be
       0.1963418 1.0276196 -0.2186826 -0.3099111
0003b0 c4 bc c8 be b5 4f 03 3f 78 01 89 3d 42 45 10 3e
       -0.39206517 0.512935 0.06689733 0.1408892
0003c0 14 2f bf 3b e6 d5 2d be 41 10 fb 3d ea 30 9c bb
       0.0058344696 -0.16976127 0.122589596 -0.004766573
0003d0 22 a3 b4 3e f5 1b 2d 3e 13 25 70 bf 8b 08 27 3e
       0.3528071 0.16905196 -0.9380657 0.16311853
0003e0 c9 d0 48 3e b7 f3 3c be be b2 49 bd f6 2b 10 3e
       0.19610895 -0.18452345 -0.049242727 0.1407927
0003f0 6b 6f 37 be cd 1e a8 3d 52 bd 22 bd 3a a4 b7 bc
       -0.17913596 0.08209 -0.03973133 -0.022417177

fc1.bias f4 [256]
000000 97 d4 09 bf 39 a4 27 bf 9f 8a 17 bf bb d9 c8 be
       -0.5384001 -0.6548496 -0.59195894 -0.39228615
000010 42 a7 22 bf 04 51 86 be dc de 40 bf ae 37 3a be
       -0.63536465 -0.26233685 -0.75340056 -0.18185303
000020 f3 0a 48 bf c7 bd ea be e8 9d 2d bf 02 c6 23 bf
       -0.7814171 -0.45847914 -0.6781907 -0.6397401
000030 e5 58 1b bf b8 f9 29 be d5 4f 4f be b3 05 ae be
       -0.6068252 -0.16599166 -0.20245297 -0.33988723
000040 85 bd 26 bf bc 32 b7 be 5d 44 e4 be 19 36 83 bf
       -0.65132934 -0.35780895 -0.44583407 -1.0250884
000050 c3 c8 1d bf 40 6d 24 bf dc 9e f5 be 2c c0 3d bf
       -0.61634463 -0.642292 -0.47972763 -0.74121356
000060 d0 16 46 be 4f 50 9d be 35 c7 e6 be 01 7b b4 bd
       -0.1934464 -0.30725333 -0.45073858 -0.08812524
000070 53 a4 25 bf eb b2 b4 be e6 8a 44 3e 8b c0 72 bf
       -0.64703864 -0.35292754 0.1919361 -0.9482505
000080 9f 47 f0 be e9 83 03 bf f7 55 6b bf 54 de fd be
       -0.46929643 -0.51373154 -0.91928047 -0.49583685
000090 55 96 06 bf 36 24 b2 bd fb 9e fc be 9d f1 1c bf
       -0.5257314 -0.08698313 -0.49340042 -0.6130617
0000a0 d1 8e 9b bd f6 00 43 bf 3c 13 aa be 51 be b1 be
       -0.075955994 -0.7617334 -0.332178 -0.34715512
0000b0 e3 e8 96 be 95 f1 f2 be f1 ce 21 bf 82 4a 8c be
       -0.29474553 -0.47449937 -0.6320639 -0.27400595
0000c0 1c 69 43 bf b9 9b c9 be 17 bd a3 be 25 a7 06 bf
       -0.7633226 -0.3937662 -0.31980202 -0.5259879
0000d0 54 ac 8b bf e4 f2 ae be a8 94 0e bf df 39 5b bf
       -1.0911965 -0.34169686 -0.5569558 -0.8563518
0000e0 0d 1e 64 bf 23 fd 2c bf b2 c6 37 be 71 3d 82 be
       -0.89108354 -0.67573756 -0.1794689 -0.254375
0000f0 3f 98 6e bf 3d 98 04 bf 8f fe 41 bf be 9e 81 bf
       -0.9320106 -0.517948 -0.7577905 -1.0126569
000100 79 4b 38 bf 7d b5 5c bf 50 84 11 bf c2 45 3d bf
       -0.7199016 -0.8621443 -0.5684252 -0.73934567
000110 ad bd 75 be a3 a5 55 be 69 4a 58 be 9f a2 e0 be
       -0.23998137 -0.20863967 -0.21122135 -0.4387407
000120 79 1f 1b bf 2e 55 3a bf 80 15 01 bf 03 cb 15 bf
       -0.605949 -0.72786224 -0.5042343 -0.58512896
000130 ee e0 37 bf a0 b0 1b bf da f9 71 bf 83 bd 9e 3d
       -0.7182759 -0.60816383 -0.9452187 0.0775099
000140 f7 1f 2a bf a8 29 66 bf 0a 2e 14 bf 15 72 4c bf
       -0.66455024 -0.8990731 -0.5788275 -0.79861575
000150 94 58 7c bf 29 a5 01 bf 16 fc 23 bf e4 ae 07 bf
       -0.9857266 -0.5064264 -0.6405653 -0.53001237
000160 f8 0d d1 be 73 fa 38 bf b4 86 03 bf 2a 15 97 bf
       -0.4083097 -0.72257155 -0.51377416 -1.1803334
000170 59 f0 ca be 94 12 5f be 91 2f 2a bf 61 43 19 bf
       -0.39636496 -0.2178443 -0.6647883 -0.5986844
000180 92 ef 39 bf b9 d1 3b bf 34 77 c6 be 9c 37 3c bf
       -0.7263118 -0.73366886 -0.3876282 -0.73522353
000190 36 61 02 bf fb ff 69 be 37 a9 5f be b8 9b 67 bf
       -0.5092958 -0.22851555 -0.21841894 -0.9047198
0001a0 34 49 05 bf 45 b8 3a bf ec 31 20 bc 8f 4d f9 be
       -0.52064824 -0.72937423 -0.009777527 -0.48691985
0001b0 1d 50 29 bf db bb 2d bf d3 da 54 bf 20 02 67 bf
       -0.6613787 -0.6786477 -0.831464 -0.9023762
0001c0 1f 0a fa be 62 f3 80 bf 6a bc 11 be ed a9 4a bf
       -0.48835847 -1.0074275 -0.1423203 -0.79165536
0001d0 f1 46 55 bf de 81 cc be f7 41 e2 be 32 b2 4d bf
       -0.83311373 -0.3994283 -0.44190952 -0.8035003
0001e0 84 a0 d0 be 26 f3 4d bf 9b 8d 8b bf e5 07 a7 be
       -0.40747464 -0.8044914 -1.090259 -0.3262321
0001f0 ab 20 07 bf 8e 30 3c bf 82 31 ad be f5 69 49 bf
       -0.5278422 -0.7351159 -0.33826834 -0.786773
000200 76 4f 44 be d4 3f 0d bf 3b 3d 61 bf 47 6a 27 bf
       -0.19170937 -0.5517552 -0.87984055 -0.6539654
000210 62 33 0e bf 8c 8f 2e bf 63 f1 ef bd 2e 72 53 be
       -0.55547154 -0.68187785 -0.11715963 -0.20649025
000220 11 28 67 be 4d 52 68 bf 19 ce 3a bf 69 74 fd be
       -0.22573878 -0.9075058 -0.7297073 -0.49502876
000230 ba 61 32 bf 43 ea 15 bf 32 13 3e bf e2 54 1d bf
       -0.6968037 -0.5856058 -0.7424804 -0.61457646
000240 c1 69 19 bf 10 ed 89 be ce 25 35 be 08 1f 3b bf
       -0.5992699 -0.26938677 -0.17690203 -0.73094225
000250 15 1f 0a bf ff ae dd be eb bd 25 bf 54 f6 e4 be
       -0.5395368 -0.43297574 -0.64742917 -0.44719183
000260 5a 02 0b bf 34 5f 3c bf 72 19 0c bf ca 4a da be
       -0.54300463 -0.7358277 -0.54726326 -0.42635185
000270 58 d2 5a bf 06 75 09 bf 7f c1 40 bf ce 4b d1 be
       -0.8547721 -0.5369419 -0.7529525 -0.40878147
000280 63 e3 1e bf c7 2b 48 bf cd 82 df be fe 68 09 bf
       -0.62065715 -0.781918 -0.4365448 -0.5367583
000290 79 bd 74 bf 20 39 15 3e fd 3f 9e be 19 2f e2 be
       -0.9560161 0.14572573 -0.30908194 -0.44176558
0002a0 35 64 1c bf 47 0d 9f be 91 90 73 3e 39 8e f2 be
       -0.61090404 -0.31064817 0.23785616 -0.47374132
0002b0 9a 64 40 bf a6 cc e3 bd 5a 59 4b bf 46 9c 30 be
       -0.75153506 -0.11123018 -0.79433215 -0.17247114
0002c0 b7 85 cf be 6a ff 02 bf 07 51 22 bf 0e 5a 36 bf
       -0.40531704 -0.5117098 -0.6340489 -0.7123116
0002d0 28 d0 71 bf c3 1a 8f be b7 55 1c bf 50 63 8b bf
       -0.94458246 -0.27950105 -0.6106829 -1.0889683
0002e0 44 ca e6 be 0f 2b 14 bf 02 4a 9e be 41 22 5e bf
       -0.4507619 -0.578782 -0.30915838 -0.8677102
0002f0 05 67 37 bf 8e 06 0f bf 2e 43 06 bf 31 eb 12 bf
       -0.7164157 -0.55869377 -0.5244626 -0.57390124
000300 88 7c 47 bd 37 0c f9 be ff bf 35 bf 30 03 79 bf
       -0.048702747 -0.48642132 -0.7099609 -0.9727049
000310 0a f3 89 bf 94 b6 4d bf 39 2b 45 bf 64 09 48 bf
       -1.0777295 -0.8035672 -0.7701908 -0.7813933
000320 e0 a7 83 be 6e 69 f4 be f0 dd 15 bf e8 4b 3f be
       -0.25714016 -0.47736686 -0.58541775 -0.186813
000330 15 88 de 3d 69 b5 ed bd 18 7b 10 bf 51 59 cf bd
       0.10865799 -0.11606867 -0.56437826 -0.10124458
000340 25 77 18 bf 8e 87 e0 be 0b cf 60 bf 71 50 10 bf
       -0.595568 -0.4385342 -0.8781592 -0.56372744
000350 90 e9 18 bf f1 f7 06 bf 18 24 6c bf 49 59 f7 be
       -0.5973139 -0.5272208 -0.92242575 -0.48310307
000360 c0 ed f1 be e1 cf bf be b0 8b 53 bf 20 24 bc bc
       -0.472517 -0.37463287 -0.8263502 -0.022966444
000370 6b 18 06 bf 09 a2 37 bf 97 59 20 bf 9b b7 53 3c
       -0.5238101 -0.7173162 -0.62636703 0.012922193
000380 3b bf 1c bf be de 32 bf 4f 6a 03 bf b4 61 13 bf
       -0.61229295 -0.6987113 -0.5133409 -0.5757096
000390 d9 a4 13 bf 16 6b 97 bf 94 16 1c bf 38 b0 76 bf
       -0.5767341 -1.1829555 -0.6097195 -0.9636264
0003a0 39 42 3c bf fb b1 20 bf b8 4c a1 be 6e 33 3d bf
       -0.7353855 -0.62771577 -0.31503844 -0.739066
0003b0 58 3a 21 3d 15 72 dc be 66 91 37 bf 21 a0 27 bf
       0.03936228 -0.43055788 -0.71706235 -0.6547871
0003c0 d1 2b 0c bf 10 f3 22 bf 96 cd ec bd 6f 8f 1f bf
       -0.5475436 -0.63652134 -0.1156265 -0.6232824
0003d0 bf 65 20 bf 75 67 e2 be 20 72 d2 be 9a 7d e4 be
       -0.6265525 -0.44219556 -0.41102695 -0.44627076
0003e0 98 b8 dd be c8 58 b4 be f7 a3 ec be cf ad 56 bf
       -0.43304896 -0.35223985 -0.46218845 -0.8385896
0003f0 61 c4 46 bf 55 f0 bb be c8 15 95 be 3a 73 de be
       -0.776434 -0.36706796 -0.2911818 -0.43447286

fc2.weight f4 [4, 256]
000000 83 36 dd 3d 4c 06 37 be 03 e6 c6 bf 0a 4e 09 3e
       0.10801413 -0.17873496 -1.5538944 0.13408676
000010 7c bd 94 3f fb 4e 49 3f 05 7e 16 3f d1 05 cc bf
       1.1620326 0.7863614 0.5878604 -1.5939275
000020 8e b9 f6 3b ce 48 0d bf 02 e3 c1 bd 4a be 03 3f
       0.007529444 -0.55189216 -0.094671264 0.51462233
000030 bb 7a e1 3e 8f 4e ec bf 3c fe f2 be 07 82 51 be
       0.44038948 -1.8461474 -0.4745959 -0.20459758
000040 c9 57 d8 3e b5 df 74 3f e1 fb 8c bf f3 e1 20 bf
       0.42254475 0.9565385 -1.1014367 -0.6284477
000050 21 8e 16 3f da 88 8f be 70 b8 4c bf f9 38 95 3f
       0.5881062 -0.28034097 -0.7996893 1.1658012
000060 45 0b 19 3f e2 73 d8 be 4f 2a 57 3f 36 9a 00 bf
       0.5978282 -0.42275912 0.8404893 -0.5023531
000070 80 e6 7e 3e 45 82 90 bc 0d d2 33 be 30 96 6f bf
       0.24892616 -0.017640242 -0.17560597 -0.9358854
000080 41 dc a1 3e 82 78 83 bf b1 cf 20 bf ce 2f 59 be
       0.31613353 -1.0271151 -0.6281691 -0.21209642
000090 d6 d2 82 bf 6e 09 2c 3f 8c 76 9f be 10 3d 25 3f
       -1.0220592 0.6720189 -0.31145132 0.645463
0000a0 9a 79 c9 3e d8 7e 9e be 68 91 14 3f 18 65 03 3e
       0.39350587 -0.3095615 0.5803437 0.12831533
0000b0 9f 2a 90 bf d9 13 e5 3e ca 99 4f 3d b6 dc e0 be
       -1.1263007 0.44741705 0.050683774 -0.4391839
0000c0 4c 89 70 bf 57 df 23 3f 13 8d a6 be 3c ad c9 be
       -0.939595 0.64012665 -0.32529506 -0.3938998
0000d0 e0 3a 6f 3f cd b7 7b 3f 63 0e 69 be 45 eb c5 be
       0.9344921 0.9832733 -0.22759394 -0.3865606
0000e0 2c d9 87 bf d2 13 38 bf 5d 0b 19 3f 8b 0a 03 3e
       -1.0613151 -0.71905243 0.59782964 0.1279699
0000f0 03 ea 65 bf 21 0b 8b 3c a9 65 9d 3e 5d 1b eb 3e
       -0.898102 0.01697308 0.30741623 0.45919314
000100 b4 c1 19 3f 30 57 e7 3e 83 e9 04 3f 78 01 c4 3f
       0.6006119 0.45183706 0.5191881 1.5312948
000110 7c 84 86 bf f7 37 57 3f bc 59 c1 3e 48 26 a6 3e
       -1.0509181 0.8406977 0.37763774 0.3245108
000120 ce 37 b6 bf ba b4 f7 3e 73 5a c8 bf e8 b6 dc be
       -1.423578 0.4838007 -1.5652603 -0.43108296
000130 a9 7e 0e bf 10 36 80 be 99 1c e0 3e eb 34 f2 bd
       -0.5566202 -0.25041246 0.43771818 -0.118264996
000140 de 50 22 bf 0c 0f b5 bf 89 26 a9 be 46 1c 08 3f
       -0.63404644 -1.4145217 -0.33037212 0.5316814
000150 09 81 23 be d0 57 0c bf 78 2c 1b 3f 56 7a 9d be
       -0.15967192 -0.5482149 0.6061473 -0.30757397
000160 c4 24 bf 3d 0c 9d b5 3f 4c 72 6d bf df 02 1e be
       0.09333184 1.4188552 -0.9275253 -0.15430783
000170 d4 b7 27 3e 23 9c 89 bf 2a 29 32 bf 6d 32 11 bf
       0.16378719 -1.0750774 -0.6959406 -0.5671757
000180 04 81 71 bf c6 1a 2f 3f 91 5f a9 bc 78 41 73 3f
       -0.9433749 0.6840023 -0.020675452 0.9502177
000190 05 df 1a be 88 15 fc 3f e8 3d e6 3d d2 8e 1f 3f
       -0.15124138 1.9694071 0.112422764 0.623273
0001a0 67 65 ed 3e c5 35 88 be 09 5f be 3d 9f fb 8e be
       0.46366426 -0.26603523 0.0929547 -0.27926347
0001b0 d6 f7 62 3c 28 76 eb be 6e 57 2c bf 8b d7 a1 be
       0.013853034 -0.45988584 -0.6732091 -0.3160976
0001c0 7f 7f 9c 3f ae ac 69 be 1a 19 80 bf 09 d6 11 3f
       1.2226409 -0.22819778 -1.000766 0.56967217
0001d0 db 7b 25 3f c6 cc 97 3e f5 fa 89 bf 90 56 47 bf
       0.64642113 0.29648417 -1.0779711 -0.7786646
0001e0 27 a2 21 bf 20 56 62 bf 0d 8d 02 3f 22 26 6d be
       -0.6313805 -0.88412666 0.50996476 -0.23159078
0001f0 4b c7 41 bf a7 e1 1d 3f 61 82 ab be 53 56 8a bf
       -0.7569472 0.61672443 -0.3349791 -1.0807594
000200 1e fe 54 3f 0d f7 24 3f bb a2 33 3f 04 3b 90 bf
       0.8320025 0.6443947 0.7017018 -1.126801
000210 17 27 4f bf 3c 44 53 bf 0f 1b 67 be ce cc 80 3f
       -0.8091902 -0.8252599 -0.22568916 1.0062501
000220 90 95 73 3f 28 83 02 bf ad c4 76 be c6 e8 ce bf
       0.9515009 -0.5098138 -0.24098463 -1.6164787
000230 f3 2b 36 3e ff 16 16 3f 8c d9 a3 bf a9 b0 81 3f
       0.17790203 0.5862884 -1.2800765 1.0132037
000240 d0 70 87 be ed f4 76 3f b3 c3 a7 bf bd ab 28 3f
       -0.26453257 0.9646748 -1.3106598 0.6588705
000250 12 4b 20 bf 94 91 8e 3e 41 b7 86 bf 77 04 41 bf
       -0.6261455 0.27845442 -1.0524675 -0.7539744
000260 4c 1f 03 bf 87 57 80 3e c1 4e 29 bf 41 8a f2 3e
       -0.5121963 0.25066778 -0.66135794 0.47371104
000270 db 85 5e bf fa c5 c9 be 8b df b5 be fd b9 14 3f
       -0.86923 -0.39408857 -0.35522112 0.58096296
000280 6a 04 a3 3f b2 9c f6 be d5 9f 95 be 56 a1 bb 3e
       1.2735722 -0.48166424 -0.29223505 0.36646527
000290 3b 26 5a 3f 41 f4 be be 1f 38 27 be 1f 43 c8 3e
       0.85214585 -0.37295726 -0.16330002 0.3911371
0002a0 50 c1 7f 3d 15 7e 4d 3f ec ae cd 3d 2d 22 05 bf
       0.062440217 0.8027051 0.10043129 -0.52005273
0002b0 4d e2 4a 3f eb 49 8f 3f 30 7a c5 3e f0 86 01 3f
       0.7925156 1.1194433 0.38569784 0.50596523
0002c0 94 ef d3 be c5 74 ae 3e 8b 7e 42 bf b8 7b 8d bf
       -0.4139372 0.34073463 -0.7597434 -1.1053381
0002d0 03 27 e8 be fc 44 13 3e 69 b1 18 be a0 f6 49 3e
       -0.45342264 0.14381784 -0.14911427 0.19722986
0002e0 50 3a 6d 3e ee 32 01 be 6e eb 11 bf d5 e0 be 3e
       0.23166776 -0.12617084 -0.5699986 0.37280908
0002f0 67 48 29 bf 6d 1f 4a be 6a 5c 2e bf 42 a8 82 bf
       -0.661261 -0.1973855 -0.6810976 -1.0207598
000300 19 08 e6 3e b3 9a 0f 3f 98 b5 43 bf 12 af b8 3e
       0.44928053 0.5609543 -0.76448965 0.36071068
000310 24 c1 61 3e e4 fd db 3f e9 20 33 3f 8d d1 01 bf
       0.22046334 1.7186856 0.6997209 -0.50710374
000320 c6 c8 c5 3d e3 f2 e2 be d4 59 4f bf 60 c8 0e bd
       0.09657435 -0.44325933 -0.8099644 -0.03485906
000330 dc 60 81 3e a2 2b 8a 3f 35 e5 83 bf c5 53 7c 3e
       0.2526921 1.0794566 -1.0304323 0.2464133
000340 df 90 43 3f 4a 1b ad 3e ab 2c 81 bf 42 da 37 bf
       0.7639293 0.33809882 -1.0091757 -0.7181741
000350 70 2e 72 3f 3e 01 40 3e 3c 55 23 bf 11 4b 4d bf
       0.9460211 0.18750474 -0.6380193 -0.8019267
000360 39 e2 d9 3d f6 e2 cd be 9b b4 8d bf 0e a9 19 3f
       0.10638852 -0.4021222 -1.1070741 0.6002358
000370 dd 71 4a be 7e ab cd 3d 0f f9 14 bd b0 15 d3 3f
       -0.19769998 0.10042475 -0.036370333 1.6490993
000380 ee 70 4f 3f 29 36 aa bf 18 d2 8c 3e 17 5e 2e bf
       0.8103169 -1.3297778 0.2750404 -0.6811232
000390 a2 da e4 3e fd 1d 4d bf 9c 82 7c bf 0a 80 85 3f
       0.44698054 -0.80123883 -0.98636794 1.04297
0003a0 72 36 98 bf ed ef 2b 3d 3e d4 55 3e 67 dd 23 bf
       -1.1891615 0.041976858 0.20881745 -0.6400971
0003b0 a2 07 97 3e c8 d0 e4 be d1 b9 0f 3b ac 72 ab 3e
       0.2949801 -0.44690537 0.0021930824 0.33485925
0003c0 09 09 88 bf f3 16 14 3d 59 c9 21 3f 1e 32 68 bf
       -1.0627757 0.0361547 0.6319786 -0.9070147
0003d0 1f d3 8b 3d 84 4e 2c 3f ee 77 c4 be 7d 2f 28 be
       0.068273775 0.67307305 -0.3837275 -0.16424365
0003e0 17 20 3f 3f d6 bf 22 bf f8 2c b9 be 1e 0d 1b 3e
       0.7465834 -0.6357397 -0.3616712 0.15141723
0003f0 1c b5 ae 3e f6 cb 02 bc 9d 9c 76 bf 43 03 74 3e
       0.3412255 -0.007983198 -0.9633272 0.23829369

fc2.bias f4 [4]
000000 fa 53 96 3c 32 7c f9 be 00 ef 6f 3d a9 00 15 be
       0.01835059 -0.48727566 0.058577538 -0.14551033
