checkpoint_critic.pth (torch_old, 435416 bytes, 7 tensors)

fcs1.weight f4 [256, 33]
0	0xbd997659	-0.07493276
1	0x3f1517f1	0.58239657
2	0x3d5ac0d4	0.05340655
3	0xbdb84415	-0.089973606
4	0xbe5d7bba	-0.21629229
5	0xbeb23d23	-0.3481227
6	0xbddb40fa	-0.10705753
7	0x3e29c442	0.16578773
8	0xbee6c8df	-0.45075127
9	0x3e5e9eba	0.21740237
10	0xbc6cf8e5	-0.014463638
11	0x3d897391	0.06711496
12	0x3cd2e3fb	0.025743475
13	0x3dc59c6d	0.096489765
14	0x3b883c17	0.004157554
15	0x3dbf80d8	0.09350747
16	0x3f31c789	0.6944509
17	0x3e9e5176	0.30921525
18	0x3f1b9ab5	0.6078294
19	0xbdb14995	-0.08656613
20	0xbd23a1ac	-0.039949104
21	0x3da9c510	0.0828954
22	0xbe1c3b90	-0.15257096
23	0xbd72867b	-0.05921028
24	0xbe02597e	-0.12729451
25	0x3dabcef7	0.08389085
26	0x3d8b0f81	0.067900665
27	0x3f632ff4	0.88745046
28	0xbdffc9c3	-0.12489655
29	0xbd5ac47c	-0.05341004
30	0xbf4c8dc0	-0.79903793
31	0xbc167ab0	-0.009184524
32	0xbd867e19	-0.0656702
33	0xbf782ea8	-0.9694619
34	0x3e22b3fc	0.15888971
35	0x3ec246e9	0.37944725
36	0xbea57445	-0.3231527
37	0xbeea1073	-0.45715675
38	0xbf18078b	-0.5938651
39	0x3ea7edde	0.32798666
40	0x3d4d5644	0.050131097
41	0x3db4d4d7	0.088296585
42	0xbdcffd6a	-0.10155757
43	0xbc62d97d	-0.013845799
44	0xbbc95c63	-0.0061450466
45	0x3d5adbf8	0.053432435
46	0x3ec8c420	0.39212132
47	0x3d1364d4	0.03598483
48	0xbe5018b4	-0.20321923
49	0xbe5701d4	-0.20996791
50	0x3d2ce287	0.04220822
51	0x3e11120d	0.14167042
52	0xbd0db385	-0.03459503
53	0x3d2cbe64	0.04217376
54	0xbcfa409f	-0.030548392
55	0xbdb9f54c	-0.0907999
56	0x3df4d72f	0.119551055
57	0xbdafa487	-0.08576303
58	0xbd009127	-0.031388428
59	0x3e6927f3	0.22769146
60	0xbdf0f520	-0.11765504
61	0xbd42d65d	-0.047567714
62	0x3c612d08	0.013743646
63	0x3df95ca6	0.121758744
64	0x3c96476c	0.018344603
65	0x3ee1502d	0.44006482
66	0xbe63ee62	-0.22258905
67	0x3e277d24	0.16356331
68	0xbead19c9	-0.33808735
69	0xbec0c5e7	-0.37650988
70	0xbdf8c746	-0.121473834
71	0x3da4a08b	0.08038434
72	0x3cb99071	0.022651883
73	0xbdc30ad3	-0.09523549
74	0x3e8c62ba	0.27419072
75	0xbe8cfdc5	-0.2753736
76	0x3d050422	0.032474644
77	0x3cb48b8b	0.022039196
78	0xbd1bb6bf	-0.038016077
79	0xbcc9b3c9	-0.024621861
80	0x3bf9ce4b	0.007623469
81	0x3d8ddcc3	0.069268726
82	0x3e8edc03	0.2790223
83	0x3e3ad7cc	0.18246382
84	0x3df95f59	0.12176389
85	0x3d7b1074	0.061294988
86	0x3de5f9b0	0.11229265
87	0x3d519d4f	0.05117541
88	0x3da1c6b8	0.07899231
89	0x3d5d8336	0.05408021
90	0x3d0cf028	0.03440872
91	0xbc9912e1	-0.01868576
92	0x3de5069e	0.11182903
93	0x3f3df80e	0.74206626
94	0x3d1b98ea	0.037987627
95	0x3cc4f4d0	0.024042517
96	0xbf3e107f	-0.7424392
97	0x3d6140e2	0.054993518
98	0x3f51bff4	0.8193352
99	0xbdc8713d	-0.097872235
100	0x3e9b5444	0.30337727
101	0xbebe4644	-0.37162983
102	0xbea2ac36	-0.31772012
103	0x3de5cb4c	0.112204164
104	0x3da018af	0.07817208
105	0x3e3b9749	0.1831943
106	0x3e4d1d72	0.20030764
107	0x3ce8f190	0.028435498
108	0x3ded45b3	0.1158556
109	0x3e62c2de	0.22144648
110	0xbc8d5fae	-0.017257538
111	0x3e0e14ec	0.13875169
112	0xbd96cd7e	-0.07363413
113	0x3e49e3a5	0.19715746
114	0x3eb221ee	0.3479151
115	0x3f1eb3c3	0.61993045
116	0xbeb6131b	-0.3556145
117	0xbf0ef89f	-0.55848116
118	0x3e6ac796	0.22927698
119	0x3e5baf27	0.21453534
120	0x3ddc6c5d	0.10762856
121	0xbdf63c1b	-0.12023183
122	0xbdf1fd51	-0.118158944
123	0xbd152690	-0.03641373
124	0x3cb97891	0.022640498
125	0x3d8e11bb	0.069369756
126	0x3ead5ea1	0.3386126
127	0xbe044e04	-0.12920386
128	0xbcac22e8	-0.021012738
129	0xbed15af8	-0.40889716
130	0xbd6db8c8	-0.05803755
131	0xbe54a057	-0.2076429
132	0xbe42bc6a	-0.19017187
133	0x3f05607e	0.5210036
134	0xbe55fc10	-0.20896935
135	0x3d9cd221	0.076572664
136	0xbe654528	-0.22389662
137	0xbdf1b9f7	-0.11803048
138	0xbd28845b	-0.04114185
139	0xbd864e5f	-0.06557917
140	0x3d950217	0.07275789
141	0xbe8bd08e	-0.27307552
142	0x3d95df1f	0.073179476
143	0x3e415a4f	0.18882106
144	0x3eb617b5	0.35564962
145	0x3e2d7ad4	0.16941386
146	0x3e074c6e	0.1321275
147	0x3dccfa94	0.100087315
148	0x3ea2f856	0.3183009
149	0x3e4cb31a	0.19990197
150	0x3dcbec80	0.09957218
151	0x3db60c6f	0.0888909
152	0xbcdb9a18	-0.026806876
153	0xbec63d4c	-0.3871864
154	0xbb5ff42f	-0.0034172644
155	0xbc94fb79	-0.018186318
156	0x3e2f5a2e	0.17124245
157	0xbdcfc791	-0.10145486
158	0xbe9bfa65	-0.30464473
159	0x3f3555f3	0.70834273
160	0xbdab3334	-0.083593756
161	0x3ced43dc	0.028963022
162	0xbf418a49	-0.7560163
163	0xbbb691f0	-0.0055715963
164	0x3f2e1abd	0.6800955
165	0x3e978650	0.2959466
166	0x3f348a7c	0.7052381
167	0xbea30ce4	-0.31845772
168	0xbeca7136	-0.39539498
169	0xbe14192d	-0.14462729
170	0xbf33cd75	-0.7023538
171	0x3e1bfaaa	0.1523234
172	0x3e80edcf	0.25181434
173	0x3b81c5fe	0.00396037
174	0xbd3c86f8	-0.046027154
175	0xbc41fa9b	-0.011839534
176	0xbe072602	-0.13198093
177	0xbd128931	-0.035775367
178	0x3d8697fa	0.06571956
179	0xbec68dcf	-0.38780066
180	0x3e5ac4d1	0.21364142
181	0xbebf32c0	-0.37343407
182	0xbf0cf561	-0.5506192
183	0x3e129739	0.143155
184	0xbed71607	-0.42008993
185	0xbcb75937	-0.022381408
186	0xbdded4e4	-0.108804494
187	0x3e766a54	0.24063998
188	0x3d2937c1	0.041312937
189	0x3dc0d191	0.094149716
190	0xbda9c3b4	-0.082892805
191	0x3d378efc	0.044814095
192	0x3f286a99	0.65787655
193	0x3e1b142e	0.15144417
194	0xbc2b4ef8	-0.010455839
195	0xbf192fea	-0.59838736
196	0x3d301c4c	0.042995736
197	0xbdf1ffad	-0.118163444
198	0x3dcbe979	0.09956641
199	0x3ed901bf	0.42384145
200	0x3d938de6	0.07204799
201	0xbe7bf1ea	-0.24604002
202	0xbe874804	-0.2642213
203	0x3e46e398	0.19422758
204	0xbf318854	-0.69348645
205	0x3eb8e938	0.36115432
206	0x3d4063ca	0.046970166
207	0xbed2a924	-0.4114467
208	0xbd5e69e0	-0.05430019
209	0x3e172344	0.14759547
210	0xbdc43131	-0.09579695
211	0xbe9c0ccc	-0.30478513
212	0x3e189d23	0.14903693
213	0x3e39bc4f	0.1813824
214	0x3dd4f5fa	0.10398479
215	0x3e44fd19	0.19237174
216	0x3f2174fd	0.63069135
217	0x3d9912bd	0.07474277
218	0xbdcc9ee6	-0.09991245
219	0x3e11c79c	0.14236301
220	0x3d126e1e	0.035749547
221	0x3de895dd	0.11356709
222	0xbe3d68af	-0.18496965
223	0x3ddbcb51	0.10732139
224	0x3e3511b3	0.17682533
225	0x3f16d29d	0.5891512
226	0xbe499328	-0.19685042
227	0xbcd34340	-0.025788903
228	0xbf17de5c	-0.5932367
229	0x3ba88d60	0.0051438063
230	0xbed8a6a3	-0.42314634
231	0x3dd529c1	0.104083546
232	0xbc8c6ade	-0.017140802
233	0xbe4eebed	-0.20207186
234	0xbe523976	-0.20529732
235	0x3eac05a4	0.33598053
236	0xbd94a1d7	-0.07257431
237	0x3dba930a	0.09110077
238	0x3db89981	0.090136535
239	0x3e48432e	0.19556877
240	0xbee70529	-0.45121124
241	0xbe5cb6c3	-0.21554093
242	0x3d857569	0.06516535
243	0xbdced02d	-0.100983
244	0x3c84b6f9	0.01620053
245	0x3e047622	0.12935689
246	0x3df10b3b	0.1176972
247	0x3e6b689b	0.22989123
248	0xbebb7daf	-0.36619326
249	0x3c5c98db	0.013464178
250	0x3e2a9fcf	0.16662525
251	0xbe1854f4	-0.14876157
252	0x3e24962b	0.1607291
253	0x3cdc86f9	0.026919829
254	0xbdb926ed	-0.09040628
255	0x3ab39927	0.0013702259

fcs1.bias f4 [256]
0	0xbf676758	-0.90392065
1	0xbd76c210	-0.060243666
2	0xbf3d2e49	-0.7389875
3	0xbeac6ffd	-0.3367919
4	0xbf275e89	-0.65378624
5	0xbeea4381	-0.45754626
6	0xbf336d4b	-0.7008864
7	0xbf71964d	-0.94369966
8	0xbf4dd5d3	-0.80404395
9	0xbf651eb8	-0.895
10	0xbf1f96dc	-0.6233957
11	0xbf5b3801	-0.8563233
12	0xbed9cbfa	-0.42538434
13	0xbf6a2b86	-0.9147266
14	0xbf34b672	-0.7059089
15	0xbf24aa41	-0.64322287
16	0xbf5379aa	-0.8260752
17	0xbf090301	-0.5352021
18	0xbf335447	-0.7005047
19	0xbf2bd796	-0.67125833
20	0xbdf27c15	-0.11840073
21	0xbf6982e9	-0.9121538
22	0x3bf8c04f	0.0075912843
23	0x3ecea443	0.40359697
24	0xbebe42ec	-0.37160432
25	0xbf4baf96	-0.795648
26	0xbdd663c7	-0.1046825
27	0xbea4f619	-0.32219008
28	0xbf0a75ab	-0.540858
29	0xbea72b24	-0.326501
30	0x3da31c0a	0.079643324
31	0xbf2554ee	-0.6458272
32	0xbd982293	-0.074284695
33	0xbef0b97f	-0.47016522
34	0xbf2a75e0	-0.6658611
35	0xbf1b29e7	-0.6061081
36	0xbeac9c1b	-0.3371285
37	0xbf39e067	-0.72608036
38	0xbf151c55	-0.58246356
39	0xbed92384	-0.4240991
40	0xbe14f163	-0.14545207
41	0xbee1d3c9	-0.44106892
42	0xbf0b8350	-0.5449724
43	0xbf58b302	-0.84648144
44	0xbf135aeb	-0.57560605
45	0xbf458f49	-0.7717176
46	0xbe471615	-0.19442017
47	0xbf35ba07	-0.7098698
48	0xbf5c5692	-0.86069596
49	0xbf0eb5f5	-0.55746394
50	0xbf6fa6af	-0.93613714
51	0xbf5a70ce	-0.85328376
52	0xbde96ae1	-0.11397339
53	0xbf0cb068	-0.54956675
54	0xbf450768	-0.76964426
55	0xbf2fdaf6	-0.6869348
56	0xbeb0c532	-0.34525448
57	0xbf3e86dc	-0.7442453
58	0xbe2847db	-0.1643366
59	0xbec2b03d	-0.38025084
60	0xbe38705c	-0.18011612
61	0xbf26d2f9	-0.6516567
62	0x3f3e645d	0.7437189
63	0xbf269332	-0.6506835
64	0x3e4c6641	0.19960882
65	0xbf1e5823	-0.61853236
66	0xbe83fabe	-0.2577724
67	0xbf573a1d	-0.8407305
68	0xbf1525dc	-0.58260894
69	0xbf6c18d0	-0.9222536
70	0xbf4f31b5	-0.8093522
71	0xbce0c12e	-0.027435865
72	0xbda209e8	-0.07912046
73	0xbd2c7366	-0.04210224
74	0xbf02de5a	-0.5112053
75	0xbf4fd1b6	-0.8117937
76	0xbd658508	-0.05603507
77	0xbf0f98e1	-0.5609265
78	0xbf421aff	-0.7582244
79	0x3da590be	0.08084248
80	0xbee82932	-0.4534393
81	0xbf125680	-0.5716324
82	0x3cba26d7	0.022723598
83	0xbf6546f4	-0.8956139
84	0x3ceb1998	0.028698727
85	0xbf06e9fa	-0.5270077
86	0xbf5a1bc4	-0.85198617
87	0xbf3a3fa2	-0.72753346
88	0xbf19a847	-0.60022396
89	0xbf4d9dd1	-0.80318934
90	0xbf3b87a5	-0.7325385
91	0xbf80446d	-1.0020882
92	0xbe5a41e8	-0.21314204
93	0xbf3fd9e6	-0.7494186
94	0xbf319378	-0.69365644
95	0xbf05b30d	-0.52226335
96	0xbd84647f	-0.064644806
97	0xbf54072b	-0.8282344
98	0xbf617364	-0.880667
99	0xbf801fd3	-1.0009712
100	0xbf33b156	-0.7019247
101	0xbf1b5bc0	-0.60686874
102	0xbf242e71	-0.64133364
103	0xbf6e0f46	-0.92992055
104	0xbea21fb4	-0.31664813
105	0xbef52964	-0.4788314
106	0x3e2017c2	0.15634063
107	0xbe6f5995	-0.23374017
108	0x3e73ce9d	0.23809285
109	0xbf329924	-0.69764924
110	0xbf76ed9b	-0.9645631
111	0xbf34679b	-0.7047059
112	0xbf62b80f	-0.885621
113	0xbe05a047	-0.13049422
114	0x3d8bc1db	0.06824084
115	0xbec02af8	-0.37532783
116	0xbebd3203	-0.36952218
117	0xbf2d5fe4	-0.6772444
118	0xbe5ffe93	-0.21874456
119	0xbf0b08cb	-0.5431029
120	0xbf74fef0	-0.95701504
121	0x3dc2beab	0.09509023
122	0xbeebc52c	-0.46048868
123	0xbf283a4c	-0.65713954
124	0xbede7b8a	-0.43453628
125	0x3e77f8a8	0.24215949
126	0xbe89fe6a	-0.26951915
127	0xbf679a8f	-0.9047021
128	0x3d06d25f	0.03291547
129	0xbe4d13bf	-0.20027064
130	0xbeadce1d	-0.33946314
131	0xbe5d7d74	-0.21629888
132	0xbdba77af	-0.09104859
133	0xbd5d4110	-0.054017127
134	0xbf5b264b	-0.85605305
135	0xbed80f70	-0.42199278
136	0xbf42cb41	-0.7609139
137	0xbf453e85	-0.7704852
138	0xbf4311b5	-0.76198894
139	0xbf75a480	-0.9595413
140	0xbed86b7c	-0.42269504
141	0xbf391a56	-0.7230581
142	0xbf4a1471	-0.7893744
143	0xbe84dfc6	-0.25951976
144	0xbf3d7db8	-0.74019957
145	0xbf4c9d78	-0.7992778
146	0xbe3a59d1	-0.18198325
147	0xbf5c8308	-0.8613744
148	0xbea0374a	-0.31292182
149	0xbf5cb6a6	-0.862162
150	0x3df90c18	0.1216051
151	0xbf3a7eac	-0.72849536
152	0xbf36dd3c	-0.71431327
153	0xbe63173f	-0.22176836
154	0xbecddc59	-0.40207174
155	0xbf0b6dfc	-0.544647
156	0x3ece9c07	0.40353414
157	0xbf0702fc	-0.5273893
158	0xbec52f31	-0.38512567
159	0xbe7f32fb	-0.24921791
160	0xbeaccdba	-0.33750707
161	0xbf793408	-0.9734502
162	0xbed38927	-0.41315576
163	0xbe7cd9e3	-0.24692492
164	0xbf31b850	-0.69421864
165	0xbede4bd2	-0.4341722
166	0xbeb5e78b	-0.35528216
167	0xbee08c2b	-0.4385694
168	0xbf01ea86	-0.5074848
169	0xbeb4c4fc	-0.35306537
170	0xbf02faec	-0.51164126
171	0xbec09afb	-0.3761824
172	0xbf32d3dc	-0.6985452
173	0xbe433171	-0.19061829
174	0xbf2996a1	-0.66245466
175	0xbeab2e5d	-0.3343381
176	0x3e767fe9	0.24072231
177	0x3ec886b7	0.3916528
178	0xbf1f28fe	-0.62171924
179	0xbf866284	-1.0498815
180	0x3ec8482b	0.3911756
181	0xbf22c75f	-0.63585466
182	0xbf3b701c	-0.7321794
183	0xbf32aaa7	-0.69791645
184	0xbead99e7	-0.3390648
185	0xbebfa18b	-0.37427935
186	0xbea4580f	-0.32098433
187	0xbf5e53ce	-0.86846626
188	0xbf56c6a7	-0.8389687
189	0xbf4aa230	-0.7915373
190	0xbf3b9802	-0.7327882
191	0xbe9f8999	-0.31159666
192	0xbe5dcf48	-0.21661103
193	0xbf00d960	-0.5033169
194	0xbf1fd0d7	-0.6242804
195	0xbf0c8c82	-0.549019
196	0xbe7eb330	-0.24873042
197	0xbf0b7f05	-0.5449069
198	0xbec71237	-0.38881084
199	0xbdf96a0b	-0.12178429
200	0xbf0c7097	-0.548593
201	0xbf4ca050	-0.7993212
202	0x3d28886b	0.041145723
203	0xbf15ecc1	-0.5856438
204	0xbf22d929	-0.6361261
205	0xbe98177e	-0.29705423
206	0xbf6d7684	-0.92758965
207	0xbf160fc2	-0.58617795
208	0xbeeb066a	-0.4590333
209	0xbec48525	-0.3838283
210	0xbec9ee62	-0.39439684
211	0x3dc42f72	0.09579362
212	0xbefe2e46	-0.4964468
213	0xbea55d45	-0.32297722
214	0xbde29b10	-0.11064732
215	0xbf5dd6d2	-0.86655915
216	0xbd883e7a	-0.066525415
217	0xbf25c327	-0.64750904
218	0xbee933d9	-0.4554737
219	0xbf339ad8	-0.7015815
220	0xbf2281fb	-0.63479584
221	0xbf389a9e	-0.7211093
222	0xbf1532eb	-0.5828082
223	0xbf48d5eb	-0.7845141
224	0x3e295fbc	0.16540426
225	0xbf52cbad	-0.82342035
226	0xbec502f1	-0.38478807
227	0xbf13e82c	-0.5777614
228	0xbf410164	-0.75392747
229	0xbf2e1f72	-0.6801673
230	0xbe84d97b	-0.25947174
231	0xbeba7499	-0.36417082
232	0xbf156cee	-0.5836934
233	0xbf5042dc	-0.8135202
234	0xbf5053b3	-0.81377715
235	0xbf07f224	-0.5310385
236	0xbf10802c	-0.56445575
237	0xbf1b1745	-0.6058238
238	0xbf19de14	-0.6010449
239	0xbf01cb6e	-0.50701034
240	0xbf38a09c	-0.7212007
241	0xbf2901be	-0.66018283
242	0xbf42def2	-0.7612144
243	0xbc3ebbe1	-0.0116414735
244	0xbf49e107	-0.7885899
245	0xbe2d0877	-0.1689776
246	0x3eb132e5	0.34609142
247	0xbf069e91	-0.52585703
248	0xbf309d0c	-0.68989635
249	0xbe8ef878	-0.27923942
250	0xbf0c276e	-0.54747665
251	0xbf5d6839	-0.86487156
252	0xbed29679	-0.41130427
253	0xbf0f4774	-0.55968404
254	0xbf31207c	-0.6919019
255	0xbee8c92c	-0.45465982

fc2.weight f4 [256, 260]
0	0x3b300652	0.0026859236
1	0x3e8f91a7	0.2804081
2	0xbdc3f1b4	-0.095675856
3	0xbe3bc401	-0.18336488
4	0x3ea63cc7	0.32468244
5	0xbe7af1fd	-0.24506374
6	0xbec79e6d	-0.38988057
7	0x3e5b7134	0.21429902
8	0x3e036200	0.12830353
9	0x3e32e7d2	0.17471245
10	0xbe3ba391	-0.18324114
11	0x3e033183	0.12811856
12	0xbe7bfd24	-0.24608284
13	0x3ce25097	0.027626319
14	0x3d45b586	0.048268817
15	0x3bae5856	0.005320589
16	0xbe8d3e21	-0.27586463
17	0x3da3d452	0.07999481
18	0xbd00f3a4	-0.031482354
19	0xbe7afdc0	-0.2451086
20	0xbd976abc	-0.07393405
21	0xbd4810ce	-0.04884415
22	0xbe7612c8	-0.24030602
23	0xbe3322c8	-0.17493737
24	0xbee6629a	-0.44997102
25	0x3e30e36e	0.17274258
26	0xbf2b4281	-0.6689835
27	0x3e261f60	0.16222906
28	0x3e4f38f0	0.20236564
29	0xbe394f8f	-0.18096755
30	0xbdf0c528	-0.117563546
31	0xbe9bd80d	-0.3043827
32	0xbed00e10	-0.4063573
33	0x3df450d4	0.11929479
34	0x3daffa82	0.085927024
35	0xbef95320	-0.48696232
36	0xbe93cc95	-0.2886702
37	0x3e98ca9b	0.29842076
38	0xbe3471a6	-0.17621478
39	0x3b60b6d1	0.0034288655
40	0x3dcab0d2	0.09897007
41	0x3e55b5a3	0.2087007
42	0xbe008b3b	-0.12553112
43	0x3e9c1ae8	0.30489278
44	0x3df6c158	0.12048596
45	0xbe95658d	-0.2917904
46	0xbe82ee8c	-0.25572622
47	0x3dc68973	0.09694185
48	0xbe801961	-0.25019363
49	0x3e37fea0	0.17968225
50	0x3e021549	0.12703432
51	0x3e4a1f06	0.19738397
52	0xbe2ba4da	-0.16762105
53	0xbe2d1a4a	-0.1690456
54	0xbe511f69	-0.20422138
55	0x3e68bd44	0.22728449
56	0x3debc7c3	0.11512711
57	0x3da1c2db	0.07898494
58	0xbd1ae485	-0.03781559
59	0x3dd73d4a	0.10509737
60	0x3e122c8a	0.14274803
61	0xbf291a8e	-0.66056144
62	0xbef69851	-0.48163083
63	0xbc4911db	-0.0122723235
64	0x3dabecab	0.0839475
65	0xbcf251f5	-0.029580096
66	0xbdbd7eea	-0.092527226
67	0x3df5da47	0.12004524
68	0x3e5cd678	0.21566188
69	0x3dbba521	0.09162355
70	0xbdf9cad2	-0.12196888
71	0xbdd142c3	-0.10217812
72	0x3d69d4b4	0.057087615
73	0x3e0fb3c5	0.1403342
74	0x3d0f2e58	0.034956306
75	0x3e0b1f6c	0.13586205
76	0xbd832c53	-0.064049385
77	0x3db62787	0.08894258
78	0x3dc657da	0.09684725
79	0x3e687761	0.2270179
80	0xbe51d2b3	-0.20490532
81	0x3e179d5f	0.14806126
82	0x3e851101	0.25989535
83	0x3ecb2b7a	0.39681607
84	0xbf14c1fc	-0.58108497
85	0xbca6716a	-0.020317752
86	0x3e9af302	0.30263525
87	0xbc0118b5	-0.007879426
88	0x3d9a1722	0.075239435
89	0x3daf6248	0.085636675
90	0x3e71ff5c	0.23632568
91	0x3e1888b1	0.14895894
92	0xbe36926a	-0.1782929
93	0xbaccd27f	-0.0015626698
94	0xbdbcc387	-0.092169814
95	0xbe141443	-0.14460854
96	0xbd2ef556	-0.04271444
97	0x3d63ef16	0.055647932
98	0x3e38e222	0.18055013
99	0xbd175000	-0.03694153
100	0xbd2b6672	-0.041845746
101	0xbd2bd878	-0.041954488
102	0xbea98112	-0.33106285
103	0x3dba27e9	0.090896435
104	0xbd07b22f	-0.033128913
105	0x3e0023ca	0.12513652
106	0xbee4a19b	-0.44654545
107	0x3d196aa1	0.037455205
108	0x3e475d73	0.19469242
109	0x3e6a9d35	0.22911532
110	0xbdaac1eb	-0.08337768
111	0xbe76425a	-0.24048749
112	0xba084465	-0.000519818
113	0x3e3dc6b0	0.18532825
114	0xbeb68128	-0.35645413
115	0xbe20607b	-0.15661804
116	0xbe272821	-0.16323902
117	0xbe2e37a0	-0.17013407
118	0xbee21484	-0.44156277
119	0x3e522636	0.20522389
120	0xbb31418b	-0.0027047123
121	0xbece8477	-0.40335438
122	0x3e1652f3	0.1468008
123	0x3e08c004	0.13354498
124	0xbca1c463	-0.019746965
125	0xbe3e640e	-0.18592855
126	0x3d4257ef	0.04744714
127	0x3dfff8a5	0.12498597
128	0x3d5a315c	0.05326973
129	0xbeb3ca54	-0.35115302
130	0xbd1af873	-0.037834596
131	0xbd9f6503	-0.07782938
132	0x3cd92aa7	0.026509596
133	0xbe4e9940	-0.20175648
134	0x3e89c50d	0.2690815
135	0x3e5bf9b1	0.21481968
136	0x3e5a1eff	0.21300887
137	0xbdb9090a	-0.09034927
138	0xbe02908e	-0.12750456
139	0x3e957500	0.29190826
140	0x3e158506	0.14601526
141	0xbdd1db51	-0.102469094
142	0x3eba6429	0.3640454
143	0x3e89997a	0.26874906
144	0x3cefe595	0.029284278
145	0x3ee53d84	0.44773495
146	0x3dab73fe	0.08371733
147	0xbc29f9b1	-0.0103744725
148	0xbf22af58	-0.63548803
149	0x3e91c77b	0.28472504
150	0x3bb77e27	0.0055997553
151	0xbee8f36f	-0.45498225
152	0x3da36566	0.079783246
153	0x3eb2ba7e	0.34907907
154	0xbe0e613f	-0.13904284
155	0x3eb59a5b	0.35469326
156	0xbd19665f	-0.037451144
157	0xbd5a46c6	-0.05329015
158	0x3dd9d26d	0.10635839
159	0xbd15e0c3	-0.036591303
160	0xbed3393d	-0.41254607
161	0x3e5433aa	0.20722833
162	0x3ddbe72e	0.107374534
163	0x3d9fc207	0.0780068
164	0xbd002a5b	-0.031290393
165	0x3d268c8f	0.04066139
166	0xbb96340e	-0.004583842
167	0x3ce50c1f	0.027959881
168	0x3e9edbe7	0.31027147
169	0xbe138006	-0.14404306
170	0xbed6d492	-0.41959053
171	0xbf17f567	-0.5935883
172	0x3b7ea56b	0.003885592
173	0xbe5f439a	-0.21803132
174	0xbca20007	-0.019775404
175	0xbe9c7f90	-0.30566072
176	0x3e3c8086	0.18408403
177	0xbe88fe78	-0.26756644
178	0xbce5b15a	-0.02803867
179	0x3dd594f1	0.10428799
180	0xbe31e1c4	-0.17371279
181	0xbf081335	-0.5315431
182	0x3dc67135	0.09689561
183	0xbdb2c458	-0.08728856
184	0x3e504423	0.20338492
185	0x3e84a8e1	0.25910094
186	0xbe8ede8f	-0.27904174
187	0xbe33f0ae	-0.17572281
188	0x3de41d2c	0.111383766
189	0x3dcdae0c	0.100429624
190	0xbf036adb	-0.51334924
191	0x3ebcccf5	0.3687512
192	0x3df5a4c0	0.11994314
193	0xbe1bcf08	-0.15215695
194	0x3e20edfe	0.15715787
195	0x3edf7a59	0.4364803
196	0xbe83903c	-0.2569598
197	0x3e29bb87	0.16575442
198	0x3f00f170	0.50368404
199	0xbda23ed9	-0.079221435
200	0x3dd4346d	0.10361562
201	0x3da2a5c5	0.07941774
202	0xbeb4ac3e	-0.3528766
203	0xbe48fcdc	-0.19627708
204	0x3d89484c	0.06703243
205	0xbe85fdb2	-0.26170117
206	0x3e111214	0.14167053
207	0xbdf66b16	-0.12032144
208	0xbe3662b0	-0.17811084
209	0x3d2eaa60	0.04264295
210	0xbe0ffa18	-0.14060247
211	0xbe5ce93e	-0.2157335
212	0x3e89b38e	0.26894802
213	0x3e36c27f	0.17847632
214	0x3ab8cf3b	0.0014099845
215	0xbe0d1128	-0.13776076
216	0x3d3316ab	0.04372279
217	0xbeb045b0	-0.34428167
218	0xbeb01f4e	-0.34398884
219	0x3eac5caf	0.33664462
220	0xbe1a4646	-0.1506587
221	0x3dbe37b7	0.092879705
222	0x3e842d37	0.25815746
223	0x3eb4e8ab	0.35333762
224	0xbdae62fd	-0.08514974
225	0x3ceb30f1	0.02870986
226	0xbe98f62b	-0.2987531
227	0xbd864063	-0.065552495
228	0x3dde94ef	0.108682506
229	0x3e1f9e61	0.1558776
230	0xbdd493aa	-0.10379727
231	0xbdad174c	-0.08451709
232	0xbd2c0eec	-0.042006418
233	0xbe26f8d9	-0.16305865
234	0xbe476ef6	-0.19475922
235	0x3d31c910	0.04340464
236	0x3dcc06d1	0.099622376
237	0x3d990a02	0.07472612
238	0x3cdca8d5	0.026935974
239	0x3dee994e	0.11650334
240	0x3e2e9a9e	0.1705117
241	0xbddf4aa8	-0.109029114
242	0xbe13382e	-0.143769
243	0x3e1d8384	0.153822
244	0x3d9dca5a	0.07704611
245	0xbe566b6f	-0.2093942
246	0x3dc54f82	0.096343055
247	0x3eb5648c	0.35428274
248	0x3e953ab5	0.29146352
249	0xbe2ace60	-0.16680288
250	0xbe832d23	-0.25620374
251	0x3be99785	0.0071286582
252	0x3e9be009	0.30444363
253	0xbedc7b41	-0.43062785
254	0x3d056213	0.032564234
255	0x3e3b8574	0.18312627

fc2.bias f4 [256]
0	0xbee0a2e3	-0.43874273
1	0xbf141d1b	-0.5785691
2	0xbe9f0687	-0.31059667
3	0xbe077e06	-0.13231668
4	0x3db2641d	0.08710501
5	0xbf0879be	-0.53310764
6	0xbf46a76b	-0.7759921
7	0xbe521b27	-0.2051817
8	0xbe85c3fb	-0.26126084
9	0x3e418a5a	0.18900433
10	0xbf4feb9d	-0.8121889
11	0xbf50b0c5	-0.8151973
12	0xbf314e98	-0.6926055
13	0xbd8bc153	-0.06823983
14	0xbf6636c3	-0.8992731
15	0xbf0a9851	-0.54138666
16	0xbf67ad2c	-0.90498614
17	0xbed3e888	-0.41388345
18	0xbe6189e7	-0.22025262
19	0xbe0c3b00	-0.13694382
20	0xbcc46705	-0.023974905
21	0x3e8c8704	0.2744676
22	0xbec5833f	-0.38576695
23	0x3e13ddbf	0.14440058
24	0xbf0733a0	-0.5281315
25	0xbe9d7b40	-0.30758095
26	0xbf04ffb2	-0.5195266
27	0xbf033b71	-0.51262575
28	0x3e24438e	0.16041395
29	0x3da5d6ea	0.08097632
30	0x3f64f66e	0.8943852
31	0xbf01ab19	-0.506517
32	0xbf00c690	-0.5030298
33	0x3d8b31d3	0.067966126
34	0xbd7c933b	-0.061663847
35	0xbf96b075	-1.17726
36	0xbd3011d3	-0.04298575
37	0xbe04cb89	-0.12968268
38	0x3d1cb5d0	0.038259327
39	0xbe8630a3	-0.26208982
40	0xbe999b1f	-0.3000116
41	0xbf02adf1	-0.51046664
42	0xbf3e6b85	-0.7438281
43	0xbf87697f	-1.057907
44	0xbf4078f9	-0.7518459
45	0x3e1a1e03	0.15050511
46	0xbecfdc74	-0.4059788
47	0xbefbeabb	-0.49202523
48	0xbf85a7c0	-1.0441818
49	0xbf039751	-0.51402766
50	0xbedd2cfd	-0.43198386
51	0xbdb3088e	-0.08741866
52	0xbf2b2a4f	-0.6686143
53	0xbf1b59e4	-0.6068404
54	0xbc2b5cab	-0.0104591055
55	0xbcc2e94e	-0.023792889
56	0xbef2a05a	-0.47387964
57	0xbf2e98bc	-0.68201804
58	0xbf0a687b	-0.54065675
59	0x3ce00692	0.027346883
60	0xbf3b5eff	-0.7319183
61	0xbdf0d7da	-0.117599204
62	0xbe064a46	-0.1311427
63	0xbf125426	-0.5715965
64	0xbe0bf085	-0.1366597
65	0xbf20f748	-0.6287732
66	0x3f7d60d0	0.9897585
67	0xbebc0310	-0.36721087
68	0x3e82126e	0.25404686
69	0xbdf42f7d	-0.1192312
70	0xbeca63b4	-0.39529192
71	0xbf32b925	-0.6981376
72	0x3eb779e2	0.35835177
73	0xbeb69aef	-0.3566508
74	0xbf219190	-0.63112736
75	0xbef7f000	-0.48425293
76	0xbeb43e81	-0.35203937
77	0xbf390a76	-0.7228159
78	0xbec73983	-0.38911065
79	0xbf5aedbf	-0.8551902
80	0xbf126cdd	-0.5719736
81	0xbebb0bae	-0.36532348
82	0xbdbd6484	-0.092476875
83	0xbe77ab1c	-0.24186367
84	0xbede7ab1	-0.4345298
85	0xbf0c0172	-0.54689705
86	0xbe115374	-0.14191991
87	0xbf457259	-0.77127606
88	0xbf49659a	-0.78670657
89	0xbe630565	-0.22170027
90	0xbeadadd4	-0.33921683
91	0xbf0b8255	-0.54495746
92	0xbf3955c5	-0.723965
93	0xbe81b404	-0.25332654
94	0xbd9ec5e8	-0.07752591
95	0x3c2b1fa6	0.010444557
96	0xbf216ce8	-0.630568
97	0xbee49f9e	-0.44653028
98	0xbd138056	-0.036011063
99	0xbf2acbb8	-0.667171
100	0xbe432410	-0.19056726
101	0xbefe2be0	-0.4964285
102	0xbeeb4c09	-0.45956448
103	0x3ea3d85a	0.32001
104	0xbf03cf7d	-0.51488477
105	0x3c138aa2	0.009005221
106	0xbe96dac8	-0.29463792
107	0x3e1de7ec	0.15420502
108	0xbeb876a0	-0.36028004
109	0xbf313f06	-0.6923679
110	0xbf56090a	-0.8360754
111	0xbe963e45	-0.29344383
112	0x3bc92f20	0.006139651
113	0xbea12f76	-0.31481522
114	0xbea5375a	-0.32268792
115	0xbf25f2e0	-0.6482372
116	0xbf283062	-0.65698826
117	0xbe36171e	-0.17782256
118	0xbcb63ad2	-0.022244845
119	0xbf554d59	-0.8332115
120	0xbeb372e1	-0.35048583
121	0xbec47747	-0.3837225
122	0xbf104dc9	-0.5636869
123	0xbf11ffa8	-0.57030725
124	0xbef226cc	-0.47295225
125	0x3e82c253	0.25538883
126	0xbf198fbb	-0.5998494
127	0xbf80eb29	-1.0071765
128	0xbeadd1d7	-0.33949158
129	0x3e26c4f5	0.1628607
130	0xbf480d46	-0.78145254
131	0xbe99ceba	-0.30040532
132	0xbeb7bad5	-0.3588473
133	0xbf616b39	-0.88054234
134	0x3ddaad2f	0.106775634
135	0xbf8190c3	-1.0122303
136	0xbe8152d2	-0.252585
137	0xbea94704	-0.33061993
138	0xbf0911c4	-0.53542733
139	0xbe938639	-0.2881334
140	0xbe47331e	-0.19453093
141	0xbeb38e32	-0.35069424
142	0xbe38b836	-0.18039021
143	0xbf0e6065	-0.55615836
144	0x3d950f8e	0.072783574
145	0xbf533b7c	-0.8251264
146	0xbe92fcff	-0.28708646
147	0xbf080120	-0.53126717
148	0xbf86aacb	-1.0520872
149	0xbf4f893e	-0.8106879
150	0xbebc0bc9	-0.3672774
151	0xbeca1ca7	-0.39474985
152	0xbf860449	-1.0470058
153	0x3e5a5028	0.2131964
154	0xbea5a4fa	-0.3235243
155	0xbdb97e12	-0.09057249
156	0xbe89604e	-0.26831287
157	0x3e877153	0.26453647
158	0xbef8e42f	-0.4861159
159	0xbefdc590	-0.4956479
160	0x3e29a2b5	0.16565974
161	0xbf31820d	-0.69339067
162	0x3d8aadf5	0.06771461
163	0x3f5ad043	0.8547403
164	0xbe91891c	-0.2842492
165	0xbeda0b37	-0.4258668
166	0xbf2b1c93	-0.66840476
167	0xbf3aa67a	-0.72910273
168	0xbf5088e5	-0.81458884
169	0x3eba4bc4	0.3638593
170	0xbf0a0408	-0.539124
171	0xbebcad4b	-0.36850962
172	0xbee4c10e	-0.4467854
173	0x3d902a08	0.07039267
174	0xbf0f4c26	-0.5597557
175	0xbea08b55	-0.31356302
176	0xbf83c0f8	-1.0293264
177	0x3d904dd4	0.070460945
178	0xbf23ad2f	-0.6393613
179	0xbf28a495	-0.6587613
180	0xbed4a82c	-0.41534555
181	0xbe4417d5	-0.19149716
182	0xbd848df9	-0.06472392
183	0xbebe10f4	-0.3712231
184	0xbf20ab6c	-0.6276157
185	0xbf22e3f6	-0.6362909
186	0xbebd217b	-0.36939606
187	0x3e152f78	0.14568889
188	0xbea20c46	-0.3164999
189	0xbfa642ab	-1.2989095
190	0xbf8747d4	-1.0568795
191	0x3eef063c	0.46684444
192	0xbf8a0b4b	-1.0784696
193	0xbf8d8f0d	-1.1059281
194	0xbed46233	-0.4148117
195	0xbe376d8e	-0.17912886
196	0xbec2e7a4	-0.38067353
197	0xbf35a23a	-0.70950663
198	0xbdc11320	-0.09427476
199	0xbe535f5d	-0.20641847
200	0x3dbb593b	0.09147879
201	0xbefb5cc2	-0.49094206
202	0xbe0ee06e	-0.139528
203	0xbe7138a1	-0.23556758
204	0xbd5701c2	-0.05249191
205	0xbf5f0a79	-0.87125355
206	0xbeda133e	-0.42592806
207	0x3f494f67	0.78636783
208	0xbf1a66fa	-0.6031338
209	0x3e4ceca1	0.20012142
210	0xbec5fd5d	-0.38669863
211	0xbef9f648	-0.4882071
212	0x3ed13a7a	0.40864927
213	0xbeb4786b	-0.35248122
214	0xbeafa6ff	-0.34307095
215	0xbe49541b	-0.1966099
216	0xbebbbe0e	-0.36668438
217	0xbf3f274c	-0.7466934
218	0xbeecc0cd	-0.46240845
219	0x3d22d766	0.0397562
220	0xbeadc10c	-0.33936346
221	0xbe980dc9	-0.29698017
222	0xbca0e66b	-0.019641122
223	0xbf9d1b50	-1.227396
224	0xbe9706ec	-0.29497468
225	0xbf14c109	-0.5810705
226	0xbf1dc334	-0.6162598
227	0xbec78ca0	-0.38974476
228	0x3ea16119	0.31519392
229	0xbe6d58f0	-0.23178458
230	0xbec3831c	-0.38185966
231	0xbeb24c17	-0.34823677
232	0xbf4fb81b	-0.811403
233	0xbe866303	-0.26247415
234	0xbf090d53	-0.53535956
235	0xbd81caad	-0.063374855
236	0xbefdf1c5	-0.49598518
237	0xbf4bb781	-0.7957688
238	0xbec5e972	-0.38654667
239	0xbec96e41	-0.3934193
240	0xbe1293d8	-0.1431421
241	0xbf1de61d	-0.6167925
242	0xbe753f1a	-0.23949853
243	0xbdf4e2a6	-0.11957292
244	0xbdfe841f	-0.12427544
245	0x3dde87e3	0.10865762
246	0xbd27ae16	-0.040937506
247	0xbf0bac1b	-0.5455949
248	0x3e76faf4	0.24119169
249	0xbeec14e1	-0.4610968
250	0xbf317dea	-0.69332755
251	0x3f320265	0.69534904
252	0x3e8ab75e	0.27093023
253	0xbef39abf	-0.47579
254	0xbf00008a	-0.5000082
255	0xbe19e2bd	-0.150279

fc3.weight f4 [128, 256]
0	0xbbcc1439	-0.0062279967
1	0x3ddc3c5e	0.107537016
2	0x3e78c86b	0.24295203
3	0x3c3eb0c5	0.011638825
4	0x3df5e0d1	0.12005771
5	0x3e40fe81	0.18847086
6	0x3e05dd91	0.13072802
7	0x3c2bc509	0.010483989
8	0x3d357af1	0.0443067
9	0xbdbe9cab	-0.09307226
10	0x3e0b7d64	0.13622051
11	0x3de69cd0	0.11260378
12	0x3e51903d	0.20465179
13	0x3f036f80	0.5134201
14	0x3e1c501c	0.15264934
15	0xbe014ad7	-0.12626205
16	0x3db50145	0.08838133
17	0x3e5b92b0	0.21442676
18	0x3d587553	0.052846264
19	0x3d90765c	0.07053825
20	0x3e1fadad	0.15593596
21	0x3e414d99	0.18877257
22	0xbdd877cd	-0.10569725
23	0x3e04cf3c	0.12969679
24	0x3ddbeea7	0.10738879
25	0xbceff833	-0.029293155
26	0xbd622684	-0.055212513
27	0xbcb67a25	-0.02227504
28	0x3dc2e4fa	0.0951633
29	0x3a508fc6	0.0007955994
30	0xbd138f52	-0.036025353
31	0xbc470db9	-0.012149268
32	0xbd7dd15f	-0.06196725
33	0xbe0219dc	-0.12705177
34	0xbde04dd2	-0.10952343
35	0x3e7f4d4a	0.24931827
36	0xbc0c320f	-0.008556857
37	0x3dc14fc1	0.0943904
38	0x3b66d499	0.0035221933
39	0x3dbb29d7	0.0913884
40	0x3e268954	0.16263324
41	0x3e0c2127	0.13684522
42	0x3e5f088b	0.21780603
43	0x3e4cf182	0.20014003
44	0x3e4fb046	0.20282087
45	0xbdb1d6bf	-0.08683538
46	0x3ea5eec3	0.32408723
47	0xbe8302d5	-0.25588098
48	0x3e37c6fe	0.17947003
49	0x3dfae367	0.12250405
50	0x3ecfaeea	0.40563136
51	0x3d3a8fa7	0.045547154
52	0x3e2e98ee	0.17050526
53	0x3dda0be9	0.10646803
54	0x3db0c9ce	0.08632241
55	0x3e48a48d	0.19594021
56	0x3e3a41bd	0.1818914
57	0x3e2a6709	0.16640867
58	0xbe8a067c	-0.26958072
59	0x3c2f72ec	0.010708552
60	0x3e58c4dc	0.21168846
61	0x3e40ede4	0.18840748
62	0x3caef35e	0.02135628
63	0x3e0b5e26	0.13610134
64	0x3da9e552	0.082956925
65	0x3d647f7b	0.055785637
66	0xbe383a73	-0.17991047
67	0xbcc598e1	-0.02412075
68	0x3d672ed9	0.05644116
69	0xbdb895d8	-0.090129554
70	0x3e6669ce	0.22501299
71	0x3de285e5	0.110606946
72	0x3c376065	0.011192416
73	0x3e475167	0.19464646
74	0x3b02651f	0.0019896699
75	0x3e2d3496	0.16914591
76	0xbe488707	-0.19582759
77	0x3d5b958d	0.05360942
78	0x3d5c9fbd	0.053863276
79	0x3e5a71f7	0.21332537
80	0x3c2a9863	0.010412308
81	0xbc7b2a58	-0.01532992
82	0x3de5b6b2	0.11216487
83	0x3d02848c	0.031864688
84	0xbdfa1a00	-0.1221199
85	0x3e4c18be	0.19931313
86	0x3e1253d3	0.14289789
87	0x3cb59e92	0.022170339
88	0x3dfd8e1d	0.123806216
89	0x3d9bcc2b	0.07607301
90	0x3d96b295	0.073582806
91	0x3db69321	0.08914781
92	0xbc75be59	-0.014998996
93	0x3d75b5da	0.05998788
94	0xbc698d25	-0.014254843
95	0xbde89b2f	-0.11357724
96	0xbdcf92dc	-0.10135433
97	0x3df38896	0.11891286
98	0xbc2dd2e0	-0.010609359
99	0xbe37d6a7	-0.17952977
100	0xbd097117	-0.033555117
101	0x3e5c9640	0.21541691
102	0x3dc97e44	0.098385364
103	0x3d19e8dc	0.037575588
104	0x3e328ff4	0.17437726
105	0xbe2b339d	-0.16718908
106	0x3e381854	0.1797803
107	0x3ce89be3	0.028394645
108	0xbe03d179	-0.12872876
109	0x3eafc2bd	0.3432826
110	0x3bc5dd77	0.0060383636
111	0xbe624769	-0.22097553
112	0x3e188774	0.14895421
113	0x3e05624f	0.13025783
114	0x3da22ec5	0.07919077
115	0xbd9d0abd	-0.07668064
116	0xbdd513c1	-0.104041584
117	0x3c28458e	0.010270489
118	0x3df6a1e8	0.120426
119	0xbc07fdd1	-0.008300261
120	0x3d0578f5	0.032586057
121	0x3e69e97c	0.22842973
122	0x3ea768fc	0.32697284
123	0x3d8361de	0.06415151
124	0x3e4c07cf	0.19924854
125	0x3cc6fb9b	0.024289897
126	0x3dea94cd	0.11454163
127	0x3d9fabfe	0.07796477
128	0x3db5ed1a	0.08883114
129	0xbdc4a71b	-0.09602185
130	0xbbe3bf60	-0.006950304
131	0x3e795dd0	0.24352193
132	0xbd5a2f4e	-0.05326777
133	0x3e88f116	0.26746434
134	0x3dcd09a0	0.100116014
135	0x3e20405b	0.1564955
136	0x3d8a9712	0.067670956
137	0x3e5744f4	0.21022397
138	0x3da27d9b	0.079341136
139	0x3c860837	0.016361339
140	0xbe8b6ac8	-0.27229905
141	0x3df2901f	0.11843895
142	0x3dd9d737	0.10636752
143	0xbb63220f	-0.0034657752
144	0xbd3b9f42	-0.045806177
145	0x3e8e12bd	0.2774867
146	0x3e463cf3	0.19359188
147	0xbd50bb55	-0.050959904
148	0x3e6b9e32	0.23009565
149	0x3e58ff39	0.2119111
150	0x3e88b7b0	0.26702642
151	0x3ea6adb7	0.3255441
152	0x3e7d3271	0.24726273
153	0x3d760acf	0.0600689
154	0x3d79680f	0.060890254
155	0x3e177970	0.14792418
156	0x3c542958	0.01294931
157	0xbe61f84f	-0.22067378
158	0x3d062879	0.03275344
159	0x3e44d574	0.19222051
160	0xbe078d0b	-0.13237397
161	0x3ccf5c39	0.02531253
162	0xbe0034d0	-0.12520146
163	0x3e19c2bf	0.15015696
164	0xbd098424	-0.033573285
165	0x3dd6f7b5	0.10496465
166	0x3e1412b7	0.14460264
167	0x3d9d06bf	0.07667302
168	0x3e4c8871	0.19973923
169	0x3d30a229	0.043123398
170	0xbc988edc	-0.018622808
171	0x3db916ad	0.09037528
172	0x3d88dd9e	0.06682895
173	0x3ce44847	0.027866496
174	0xbe51bb07	-0.20481502
175	0x3d426f01	0.047469143
176	0x3e8970f6	0.26843995
177	0x3d928cbe	0.07155751
178	0xbbc8329f	-0.00610955
179	0x3e61a325	0.22034891
180	0x3cc46185	0.023972282
181	0xbe2a3280	-0.16620827
182	0x3eddc6d1	0.43315747
183	0xbd655fb0	-0.055999458
184	0x3e00ca4a	0.12577167
185	0x3dbdf786	0.09275727
186	0xbdeea20f	-0.11652004
187	0x3e1ff77e	0.15621755
188	0x3d9ac1cc	0.07556495
189	0x3e303b26	0.17210063
190	0x3e346c4e	0.1761944
191	0x3cf6b78b	0.030116817
192	0x3e6e4a04	0.23270422
193	0xbbc429de	-0.0059864363
194	0x3e149b96	0.14512476
195	0xbe884b61	-0.2662001
196	0x3defc6c0	0.117078304
197	0x3ce36eee	0.027762856
198	0xbd9b4998	-0.07582396
199	0xbc40d8c6	-0.011770433
200	0x3d812689	0.06306178
201	0xbd4e569d	-0.05037557
202	0x3eddd8ce	0.4332947
203	0x3dc2fb19	0.09520549
204	0x3d013192	0.031541415
205	0xbd971e41	-0.07378817
206	0x3e04c20d	0.1296465
207	0x3d612eb8	0.054976195
208	0xbdbab11f	-0.091158144
209	0x3cd17619	0.025569009
210	0x3e128161	0.14307167
211	0x3dab5ffa	0.083679155
212	0x3cbe6456	0.023241203
213	0xbd8d613e	-0.06903313
214	0x3e604a45	0.21903332
215	0x3e7257d8	0.23666322
216	0x3e294150	0.16528821
217	0x3ba1cee7	0.0049379948
218	0xbdd5dda7	-0.104426675
219	0x3d84b808	0.06480414
220	0x3e3b3c67	0.1828476
221	0x3d59a194	0.05313261
222	0xbd97a3c8	-0.07404286
223	0x3e9b46c6	0.30327433
224	0xbcbc572e	-0.02299079
225	0x3e070ed6	0.13189253
226	0x3ca4c2b0	0.020112365
227	0xbc4cacd7	-0.01249238
228	0xbe52e608	-0.20595562
229	0xbcc60145	-0.024170527
230	0x3e871830	0.2638564
231	0x3e011d61	0.12608863
232	0x3e3021a5	0.17200334
233	0x3d3be09f	0.045868512
234	0x3ed59d8c	0.4172176
235	0x3dd675da	0.10471697
236	0x3dff2138	0.12457508
237	0x3e1318da	0.14364949
238	0x3dfcc097	0.12341421
239	0xbea75154	-0.32679236
240	0xbdbbd9ab	-0.09172376
241	0x3e1ccdd9	0.153129
242	0xbd5fa25c	-0.054598197
243	0x3d825a5f	0.06364893
244	0x3daab1f4	0.08334723
245	0x3be90c9b	0.0071120984
246	0x3e6d9413	0.23201017
247	0xbcddeda0	-0.027090847
248	0xbd59c36b	-0.05316488
249	0x3c325314	0.010884065
250	0x3d7cf368	0.061755568
251	0xbd909377	-0.07059377
252	0x3e0c4036	0.1369637
253	0xbd25b710	-0.040457785
254	0x3d9bfb4c	0.076162905
255	0x3df76a7a	0.12080856

fc3.bias f4 [128]
0	0xbe53e51c	-0.20692867
1	0xbf2d6222	-0.67727864
2	0xbec99c47	-0.39377043
3	0xbd81905f	-0.06326365
4	0xbe704180	-0.23462486
5	0xbed1d188	-0.40980172
6	0xbe6fe1ba	-0.23425952
7	0xbe002c84	-0.12516981
8	0xbe2ad4dd	-0.16682763
9	0xbed56be0	-0.41683865
10	0xbed8ff3b	-0.42382225
11	0xbe986559	-0.29764822
12	0xbe8ca10a	-0.27466613
13	0xbec70a15	-0.3887488
14	0xbeae2c54	-0.34018195
15	0xbe349559	-0.17635097
16	0xbe4f8380	-0.20265007
17	0xbf310885	-0.69153625
18	0xbeee6478	-0.46561027
19	0xbebf7984	-0.37397397
20	0x3e4b0600	0.19826508
21	0xbe8be169	-0.27320412
22	0xbe827ab1	-0.2548423
23	0xbebe9aaa	-0.37227374
24	0xbeebb12b	-0.46033606
25	0xbe92cf56	-0.2867381
26	0xbf121e15	-0.5707715
27	0xbf0eb286	-0.55741155
28	0xbec70c50	-0.3887658
29	0xbe9a3587	-0.30118963
30	0xbee62bf0	-0.44955397
31	0xbebabe23	-0.36473188
32	0xbed3c75b	-0.41363034
33	0xbd619431	-0.055072967
34	0xbdb3e3d9	-0.08783693
35	0xbe933f3f	-0.2875919
36	0xbf006289	-0.5015035
37	0xbed356a3	-0.41277036
38	0xbe85d019	-0.26135328
39	0xbec77a96	-0.38960713
40	0xbf011b02	-0.50431836
41	0x3f9aa1fc	1.2080684
42	0xbf5d9841	-0.86560446
43	0xbf46ae5c	-0.776098
44	0xbf4f06bf	-0.8086967
45	0xbeadfea2	-0.33983332
46	0xbef0b97a	-0.47016507
47	0xbe7796fe	-0.24178693
48	0xbf0a0836	-0.5391878
49	0xbea68d86	-0.3252985
50	0xbe465731	-0.19369198
51	0xbdf3a92b	-0.118975006
52	0x3fa197bf	1.2624434
53	0xbea61c8f	-0.32443663
54	0x3f5eb979	0.8700176
55	0xbe8d9bb8	-0.27657866
56	0xbebee07a	-0.37280637
57	0xbe681834	-0.22665483
58	0xbf0e385b	-0.5555474
59	0xbed08ba8	-0.4073155
60	0xbec5b203	-0.38612375
61	0xbebdf2d4	-0.37099326
62	0xbeb11d77	-0.34592792
63	0xbf6b8c46	-0.92010915
64	0xbea8bf4b	-0.32958445
65	0xbe59a6a7	-0.21254979
66	0xbf1d42bb	-0.6142995
67	0xbe26886b	-0.16262977
68	0xbd613eac	-0.05499141
69	0x3fc94ace	1.5725954
70	0xbeaf6bf2	-0.34262043
71	0xbea409c0	-0.3203869
72	0xbdc4196c	-0.09575161
73	0xbed5a1fb	-0.41725144
74	0xbec81c61	-0.3908415
75	0xbe975d49	-0.29563358
76	0xbf28523d	-0.65750486
77	0xbd8b3344	-0.067968875
78	0xbf23dbce	-0.6400727
79	0xbe58e786	-0.21182069
80	0xbf31bc2a	-0.6942774
81	0xbf2624d9	-0.64899975
82	0xbe8d548a	-0.2760356
83	0xbe5c1562	-0.21492532
84	0xbe5f3af5	-0.21799834
85	0xbeb815b6	-0.35954064
86	0xbe9137d6	-0.28362912
87	0xbe0ee0e2	-0.13952973
88	0xbe471bdc	-0.19444221
89	0xbe7d4e6d	-0.24736948
90	0x3fb712f2	1.4302657
91	0x3fa002ee	1.2500894
92	0xbeae1229	-0.3399823
93	0xbe5c329f	-0.21503685
94	0xbf673697	-0.9031767
95	0x3f4104b3	0.75397795
96	0xbf0159c6	-0.5052761
97	0xbed50f84	-0.416134
98	0xbebb82d3	-0.36623248
99	0xbf22d980	-0.6361313
100	0xbe034573	-0.12819462
101	0xbe8cba0d	-0.27485695
102	0xbe874939	-0.26423052
103	0xbe027ad8	-0.12742174
104	0xbea8be50	-0.32957697
105	0xbed597bf	-0.41717336
106	0xbdae688e	-0.08516036
107	0xbecf8977	-0.40534565
108	0xbe9f4d82	-0.3111382
109	0xbdafe1f6	-0.085880205
110	0xbf74019f	-0.95314974
111	0xbe0c9ebd	-0.13732429
112	0xbe165a2d	-0.14682837
113	0xbf137cd5	-0.57612354
114	0xbecacf3d	-0.39611235
115	0xbf14b4e2	-0.58088505
116	0xbeb1412d	-0.34620038
117	0xbf6a205b	-0.9145562
118	0xbf064f41	-0.5246468
119	0xbea7c674	-0.32768595
120	0xbf0ee21d	-0.5581377
121	0xbec6cb81	-0.38827136
122	0xbedfcd44	-0.43711293
123	0xbeafc3d6	-0.34329098
124	0xbee7939a	-0.452298
125	0xbea408e1	-0.32038024
126	0xbe470b45	-0.19437893
127	0xbeb5603e	-0.3542499

fc4.weight f4 [1, 128]
0	0xbc117204	-0.008877281
1	0xbd08de52	-0.033415146
2	0xbac8aec0	-0.0015310869
3	0xba884ab5	-0.0010398241
4	0xbc5dc068	-0.013534643
5	0x3a10a8c9	0.0005518315
6	0xbb515b54	-0.0031945305
7	0x3b2b33ff	0.0026123521
8	0x3b565662	0.0032705297
9	0xbb4ea240	-0.0031529814
10	0xbc060806	-0.008180624
11	0x3979de88	0.0002382939
12	0xbc06c277	-0.008225075
13	0x3b8a1405	0.0042138123
14	0x3b63b0fe	0.0034742947
15	0xbb17de89	-0.0023173413
16	0x3bf7ee8d	0.0075662793
17	0xbc4eae3a	-0.012614781
18	0xbb1670fc	-0.0022955528
19	0xbb627414	-0.0034554051
20	0xbab5a2a7	-0.0013857678
21	0xba75625c	-0.0009360665
22	0xbc306fc0	-0.010768831
23	0x3a1eeceb	0.0006062525
24	0xbbd1ee78	-0.0064066015
25	0xbb945c40	-0.0045275986
26	0xbba44456	-0.005013029
27	0xbcf93406	-0.030420315
28	0xbc0b80f1	-0.008514629
29	0x3b4c28a4	0.0031152153
30	0xb92aaca3	-0.00016276776
31	0xbaabbcb0	-0.0013102498
32	0xb9e79ced	-0.00044176672
33	0x3c20c808	0.009813316
34	0xb9ce0224	-0.00039292977
35	0x3b0cc868	0.0021481756
36	0xbbd3a619	-0.0064590094
37	0xba31e28d	-0.0006785773
38	0x3c1626a0	0.009164482
39	0xbcc03357	-0.02346198
40	0xbabf3b1b	-0.0014589758
41	0x3e58a87b	0.2115802
42	0xbd9f8aba	-0.07790132
43	0xbdc8bd4e	-0.09801732
44	0xbddd5dfb	-0.10808941
45	0x3a12791c	0.0005587505
46	0x39da10d4	0.00041592738
47	0xbc189846	-0.009313649
48	0xbbb2f32e	-0.005461118
49	0x3989b512	0.00026265584
50	0x3c43ecac	0.011958282
51	0x3c8c67a9	0.017139273
52	0x3dd5da87	0.104420714
53	0xb8750672	-5.8418555e-05
54	0x3d996ef0	0.07491863
55	0xbc3e1088	-0.011600621
56	0xbc03e892	-0.008051055
57	0xbb849120	-0.0040456206
58	0xbb1b26ab	-0.002367417
59	0x3c476d2e	0.012172027
60	0xbb830520	-0.0039984137
61	0xbaf066b4	-0.0018341155
62	0xbc5a7eff	-0.013335942
63	0xbe01eac7	-0.12687217
64	0x3cf747aa	0.03018554
65	0xbb2fe9ab	-0.0026842158
66	0x38864f72	6.404416e-05
67	0x3a5156a5	0.00079856283
68	0x3c04b81f	0.0081005385
69	0x3e7378eb	0.23776595
70	0xbcd60a7f	-0.026128052
71	0x3bce346e	0.006292871
72	0xb9e571f0	-0.00043763174
73	0xbb8e64cd	-0.0043455125
74	0xb7a795db	-1.9977733e-05
75	0xbb208764	-0.0024494762
76	0xbcaa4b2f	-0.020787803
77	0xbbd708eb	-0.0065623424
78	0xbcb8740f	-0.022516279
79	0x3c0178a7	0.007902301
80	0xbcb159d1	-0.021649273
81	0xbc297895	-0.01034369
82	0x380d3d3a	3.367404e-05
83	0xbc309d18	-0.010779642
84	0xbb32da8b	-0.0027290906
85	0x3c69128a	0.014225611
86	0xb9e09881	-0.00042838234
87	0xbacdaddf	-0.0015692076
88	0xbabfdfa4	-0.0014638794
89	0xbb457b46	-0.003013329
90	0x3e781510	0.24226785
91	0x3e2f994e	0.17148325
92	0xb9a7ebbd	-0.0003202836
93	0xbab1d305	-0.0013566917
94	0xbd8e73d5	-0.06955687
95	0x3d0420c6	0.032257818
96	0xbb880742	-0.004151256
97	0xbb3b42ec	-0.0028573824
98	0xba40138a	-0.00073271303
99	0xbd17ecda	-0.037091114
100	0x3bcc70dd	0.0062390403
101	0x3939df01	0.0001772605
102	0xbbed4b47	-0.00724164
103	0x3b8de4cd	0.0043302537
104	0x3c312d17	0.010813973
105	0x39b683c1	0.0003481191
106	0x3a23ee13	0.00062534324
107	0xbb8265f0	-0.003979437
108	0xb9271163	-0.00015932838
109	0x3c0edeb4	0.008720089
110	0xbe271c1e	-0.1631932
111	0xbcb2c1df	-0.02182096
112	0xbb52c12a	-0.0032158592
113	0xbc29efdd	-0.010372129
114	0x3a23eb08	0.0006252979
115	0xbbddff24	-0.0067748
116	0xbb0c745a	-0.0021431656
117	0xbe187dd7	-0.14891754
118	0xbc064aa6	-0.0081965085
119	0x3ad57605	0.0016285783
120	0xbc6e4f89	-0.01454533
121	0x3a2f83f5	0.00066953833
122	0xbba57568	-0.0050493963
123	0xba9adfc0	-0.001181595
124	0xbbc898a8	-0.0061217137
125	0x3a8c7d7d	0.0010718551
126	0x3c911949	0.017712252
127	0xbcf0a3b3	-0.029374933
